system/models/body/FedProx_server.pt (torch, 4169 bytes, 4 tensors)

weight f4 [20, 11]
00000000: eaf1 4f3e 14bc 643f 3c8c a9be c8a2 12bf
00000010: b028 d8be c5e3 1fbd e960 47be a0fb d23e
00000020: d0e6 b93e 6421 393f aa93 c73e c0c8 093f
00000030: a7bf 09bc a800 e5be c8c5 b8be 82fd 0c3e
00000040: 65ff a03e 9f91 fe3e f87b 833e af62 253f
00000050: 5ead 4e3e c406 fb3e ad8a 10be b009 2a3f
00000060: d66d 883e 4d67 3cbe cc6c ae3e c091 31bd
00000070: 5469 8ebe 7aaf 0a3b 7ba3 e03e 520a 113f
00000080: c436 083e 14d8 40bd b68e 41bd d735 b4be
00000090: 768d 4ebe 22b9 333e 05ae 6a3e e4b6 593e
000000a0: cef4 a5bd 3aa5 ae3d 0c58 133c 1b1d 1dbf
000000b0: 3096 febd 3752 a5be 8e60 aa3e 5b5c 813c
000000c0: 0621 05bf f7ab a43d 8007 2abc 6c06 1f3f
000000d0: e257 c23e a2cb 733e 9344 163f 1cc9 74be
000000e0: ee1f 2d3e eabe b4be 4e12 d7be 44c8 b0bd
000000f0: 5e7e 7b3e 3446 893e ac08 35be 349c 1cbd
00000100: a5e5 993e 06ca b9be 1074 8a3f b44e 9c3e
00000110: 52c3 0b3f aed0 b03e 74cc 5abf 8ff6 27bf
00000120: 28ab fabd ec18 d73e 40c7 cc3e 8e9f 083f
00000130: 2a91 2fbe f45f 30be cad6 ffbd 8033 bcbe
00000140: 0ddf a0be 14f8 6c3e 865e 743e 9429 b7be
00000150: f8e7 773d 9296 94be 40b5 febd 9e9e d1be
00000160: bb0f bb3e 1c98 9abd 427e 7cbd ca41 a63e
00000170: d087 b53d 512a 4c3e 5286 43be c4f6 dfbe
00000180: 00a6 ae3e f62c 71be e5df 57be f2d5 3cbc
00000190: b200 b03e 2809 b83e 0f4a 60be 3222 64be
000001a0: 1a1f 07bf 0fa7 163e ce3c b7be b242 96be
000001b0: fc43 4fbd f594 cc3c 2214 98bd 3acc 0a3f
000001c0: 0360 43be 4e2b 393d d47b b73e 8ef1 3dbe
000001d0: 863d 4dbe 0b64 e33c 16c1 9f3e 6738 903e
000001e0: 1869 b23e a0ba 3fbe 07db 35be d2c3 573e
000001f0: e856 bbbe 0183 40be f8f6 513e 92ed 2dbe
00000200: f886 503b 3e3f cabe 5fc9 f53c 6a0c 573e
00000210: 6a81 913f 64b8 573f 50ef 223e b993 d1be
00000220: c4e3 17be f8a9 2ebe 70bb 653e fb21 1c3f
00000230: 1cdf 5f3f a778 9d3f 1fee 4e3f 642d e6be
00000240: 448e 06bf ee82 b73c 7a2d a03e 603f bfbd
00000250: 0cbb e3be c092 4abe 1c1f d6be 9a21 32bf
00000260: 4ee1 bcbe 2087 5cbc b483 d1be 40d8 05bf
00000270: de5f d33d 8c8b e03d fca5 ffbb 4158 1dbe
00000280: 88fc bb3d 8841 a8be 5837 b9bf b325 68bf
00000290: d03d 82be 8871 ad3c 9aed 8dbd aa87 9c3d
000002a0: 242f a5be faa6 a3bd 0e4f 7b3e dd60 01be
000002b0: f82c 233e 94c8 da3d 00f8 f0be f484 0b3e
000002c0: 181f 273f f261 febe a253 f13d 8e58 80be
000002d0: fd7b 01be 40df 953e 7c2f 4a3c 2c9d 493f
000002e0: a530 053f d424 d0bd b59f 1bbd ab0f fbbe
000002f0: 698c 0ebf 72f7 ac3d 8f08 1e3f 2e3d ec3e
00000300: b81a 52bc efcc 7f3a 22c1 4ebf d8a4 86bf
00000310: f475 13bf 9629 d4bd 0eda 96be d6a7 07be
00000320: dfdf 30bc cc8b c53c d7b3 88be de1f f4be
00000330: 104e 98be 2465 133e 44c0 0ebe 2dc4 993e
00000340: 9b88 123e b593 3f3e 60c8 17be df8d 933b
00000350: 8dd0 203e a693 74bc 32d4 5bbe 02c8 133e
00000360: 19db 96be aa51 7abe 5f3c 683e 0cca 0dbf
0.20307127 0.89349484 -0.33114803 -0.57279634 -0.42218542 -0.039035577 -0.19470562 0.412076
0.36308908 0.72316575 0.38979846 0.53821945 -0.00840751 -0.44727063 -0.36088395 0.1376858
0.3144485 0.49720475 0.25680518 0.64603704 0.20183322 0.490286 -0.141154 0.6642103
0.26646298 -0.18398781 0.3406738 -0.04335189 -0.27814734 0.002116172 0.43874726 0.5665637
0.13302141 -0.04708107 -0.04725524 -0.35197327 -0.2017115 0.17551091 0.22917946 0.21261173
-0.081033334 0.08527608 0.00899316 -0.61372536 -0.1243099 -0.32289287 0.3327679 0.015791109
-0.52003515 0.08040612 -0.010377765 0.62119174 0.37957674 0.23808149 0.58698386 -0.23904842
0.16906711 -0.35301906 -0.42006153 -0.08631948 0.24559924 0.26811373 -0.1767909 -0.038234904
0.30058017 -0.36286944 1.081667 0.30528796 0.5459491 0.3453421 -0.8546822 -0.65610594
-0.12239677 0.420112 0.39995766 0.5336846 -0.1714522 -0.17224103 -0.1249214 -0.3675804
-0.31420174 0.2314151 0.23864183 -0.3577391 0.060523957 -0.29021126 -0.124369144 -0.40941328
0.3653544 -0.07548544 -0.061643846 0.32472068 0.08863795 0.19938017 -0.19094208 -0.43742955
0.34111023 -0.23552307 -0.21081503 -0.011525618 0.3437553 0.35944486 -0.21903251 -0.2227867
-0.5278183 0.14712165 -0.35788578 -0.2934776 -0.050601944 0.024973372 -0.07425715 0.54217875
-0.19079594 0.045207314 0.3583666 -0.18549177 -0.20043 0.027757665 0.31202 0.28168032
0.34845805 -0.18723536 -0.17759334 0.21070793 -0.36589742 -0.18799974 0.20504367 -0.16985157
0.003181873 -0.39501375 0.030003248 0.2100083 1.1367619 0.8426573 0.15911603 -0.40933016
-0.1483298 -0.17057025 0.22434783 0.6098935 0.8744981 1.2302445 0.80832094 -0.44956505
-0.5256083 0.0224013 0.31284696 -0.0933826 -0.44478643 -0.19782543 -0.4182061 -0.6958252
-0.36890644 -0.013459951 -0.40920794 -0.52283096 0.103210196 0.109641165 -0.0078017693 -0.15365697
0.09179026 -0.32862496 -1.4470015 -0.90682524 -0.25437784 0.0211723 -0.069300845 0.07643063
-0.32262528 -0.079908326 0.24541876 -0.12634607 0.15935123 0.106827885 -0.4706421 0.13624936
0.6528182 -0.496841 0.1178353 -0.25067562 -0.12644954 0.2927189 0.012340423 0.7875545
0.5202735 -0.101632744 -0.037994105 -0.4903539 -0.55683 0.08445634 0.6173181 0.46140426
-0.012823753 0.00097580155 -0.8076345 -1.0519056 -0.5760186 -0.103594944 -0.29463238 -0.13247618
-0.0107955625 0.024114512 -0.26699707 -0.47680563 -0.29747057 0.14394051 -0.13940531 0.30032483
0.14309923 0.1870869 -0.14822531 0.0045029963 0.15704556 -0.01492778 -0.21467665 0.14431766
-0.29464033 -0.24445215 0.2267928 -0.55386424

bias f4 [20]
00000000: b85d 82bd 4664 3b3f 554b dc3e a79e 023e
00000010: 4988 54bd e1ec 853e 2e28 c6be 9eba dfbd
00000020: 149d 143d be4b 04be cc10 653c 2b2d 033f
00000030: f9b3 ca3d da7a 533f 4e75 2f3f c446 7bbe
00000040: 7a39 5e3f c0c0 1b3e 78af 783d d447 f53e
-0.06365532 0.7319988 0.43026224 0.12755834 -0.051887784 0.26157287 -0.3870253 -0.10924266
0.036282614 -0.12919518 0.0139810555 0.51240796 0.09897608 0.8260933 0.6853837 -0.24538714
0.8680645 0.15210247 0.060714215 0.47906363

weight f4 [4, 20]
00000000: c17d a13f 5283 e13e d2e2 b23e 7a12 39be
00000010: c45b 92bc 4cf8 f23d 444b c13f 60e3 23be
00000020: 72a2 c6be 285a e3be 515c a23e 7b83 babe
00000030: 50e8 0040 1436 96bf 0d02 a0bf 0ce9 5abe
00000040: 4803 ebbe b38e 923d dbc6 b1be 461f 3cbf
00000050: bc4c f6be 9071 7a3f a7b0 123f 203c b93d
00000060: d039 d13e ea3c adbd 98f5 e1bd aa10 cdbe
00000070: e0ee 033f c0bc 0a3f b9e7 073e 8e7b e33d
00000080: 909b 45bf 3753 e93d 8c72 37bf f7f3 6cbe
00000090: 8ee0 8a3f 7534 9ebf 0c70 d43e b23f af3e
000000a0: a8a2 e8be 567d 3cbf 6e14 f3be 68ad 133f
000000b0: 2bc2 1b3f 8c82 cd3e 98c8 4fbf 853c ed3e
000000c0: dc23 a03c 9365 2d3d c869 cdbe 5e0e 053f
000000d0: d89c 2fbf 0473 013f c91e 263f 13ae f1bd
000000e0: 56bd a53e 40b5 56be b423 053e 504d ca3d
000000f0: c4c3 f6be c92c febe ccb6 32bf 42c2 adbd
00000100: 3700 39bf 56f6 34bf b4d3 06bf 72d1 0e3e
00000110: de57 9e3d f345 1fbe 2679 17bf 7c15 9abe
00000120: aa6f debe 48bf e63e 810b 8c3f fe9b 953e
00000130: 01f7 6fbf d431 953f f5fe 15be 3297 1a3e
1.2616502 0.44045502 0.34938675 -0.18073454 -0.017866023 0.11863765 1.5101094 -0.16004705
-0.3879581 -0.4440472 0.31711057 -0.36428437 2.0141792 -1.1735253 -1.2500626 -0.21377963
-0.4590094 0.07156124 -0.34722027 -0.7348522 -0.4810542 0.9782953 0.573008 0.09044671
0.4086442 -0.08458884 -0.110331714 -0.40051776 0.5153637 0.5419426 0.13271989 0.111075506
-0.77190495 0.11392825 -0.7165916 -0.2313994 1.0849779 -1.2359759 0.41491735 0.34228283
-0.45436597 -0.7362875 -0.47476524 0.5768647 0.6084315 0.40138662 -0.81165457 0.46335235
0.01954835 0.042333197 -0.40119767 0.5197505 -0.685987 0.50566125 0.64890724 -0.1180078
0.32371014 -0.20967579 0.13001901 0.098780274 -0.48196232 -0.49643543 -0.69810176 -0.08484317
-0.7226595 -0.7068838 -0.52666783 0.13947085 0.07731603 -0.15554027 -0.5916923 -0.30094516
-0.43444568 0.4506781 1.0941011 0.29220575 -0.93736273 1.1655831 -0.1464804 0.15096739

bias f4 [4]
00000000: 57ad 99be 90f8 623f 2930 763c fa8d 36bf
-0.3001506 0.88660526 0.015026131 -0.7131039
