system/models/body-1/FedAvg_server.pt (torch, 4675 bytes, 4 tensors)

weight f4 [20, 11]
0.0042730803 0.9920193 -0.06130211 -0.42137337 -0.099316776 -0.035555147 -0.14515966 0.55935407
0.92023814 1.4619783 0.2843336 0.6828761 0.31439424 -0.3473281 -0.38122082 -0.18101594
-0.06588335 0.06739396 0.07383932 0.8361672 0.84645677 0.34425512 -0.5910171 1.3145465
-0.054296948 -0.31869242 0.42378747 -0.087588355 -0.43042088 0.17097977 0.6031741 0.29900786
0.033652186 -0.19665149 0.19175352 -0.24631056 0.08916969 0.25968403 0.37661552 0.1951164
-0.06063287 -1.2393717 0.50508505 -0.36197072 -0.141073 -0.32180396 0.09856317 0.01761344
-0.29053047 -0.10523663 0.053595 0.32875258 0.49856168 0.25309664 0.37788072 -0.8014342
0.50548935 -0.40583998 -0.31264216 0.020497248 0.13894828 -0.1567522 0.1962839 0.789658
0.7270733 0.100407615 1.7303723 -0.07029715 -0.15441328 -0.009814875 -0.25520974 -0.21242447
0.37605155 0.5218487 0.71889573 1.3490849 0.30091697 0.17707911 -0.09001382 -0.35609788
-0.7320403 0.18029794 0.33254415 -0.5197164 -0.07901293 -0.32795885 -0.820812 -0.3498843
0.035006233 -1.4093199 -0.8225452 1.5202506 1.9857452 0.18372406 0.08562295 -0.565115
0.6876169 0.05459528 0.027397664 -0.2013356 0.6071818 0.13849139 -0.38222772 -0.47854155
0.022359502 -0.3483944 -0.32611668 -0.83217794 0.115798034 0.16280355 -0.71296906 0.6285752
0.08746135 -0.014955763 0.046587292 0.008092456 -0.21540911 0.1794063 0.32791224 0.38182062
0.34977388 -0.56604004 -0.17258784 0.15070462 -0.53731817 -0.03905292 -0.2653874 0.13380547
-0.097218566 -0.50916636 -0.881636 -0.14376432 1.258243 0.57535625 0.105008714 -1.040273
0.09921735 0.062202193 -0.17097221 0.73211575 1.8156707 1.806483 0.33476824 -1.0570669
-1.5514287 0.16214016 0.8023577 -0.064870685 0.21277773 0.11730227 -1.0048504 0.7049853
-1.9076273 -0.36550522 -1.5671575 -1.6036386 -0.0432521 0.65583766 0.15706784 -0.0693017
0.15499598 -0.59491515 -0.49778092 -2.331248 -0.45342216 -1.4908127 -2.3126268 -0.057525985
-0.5332908 -0.2099323 -0.036247805 -0.13782477 0.6855332 2.2289217 -3.4091501 -0.09122727
1.3382518 -1.1397686 0.19738732 -0.2615428 0.039720915 -0.074095085 0.082459435 0.15479584
0.9566826 0.6947055 -0.33259127 -0.5316859 0.072841085 -0.28859618 0.23275222 -0.05459646
-0.15809555 0.13658553 -0.5434202 -2.010917 -1.0856543 0.14095236 -0.7183636 -0.6610742
-0.16763753 0.20474662 -0.382302 -0.048734143 -0.06024944 0.28255084 0.1364855 0.08491723
0.41221613 1.0272733 2.2273197 -0.2885074 0.073443875 -0.073830135 -0.013549844 -0.19885397
-0.110418156 -3.7033882 2.8772237 0.005924514
00000000: 3205 8c3b faf4 7d3f ec17 7bbd 40be d7be
00000010: 9866 cbbd 46a2 11bd bca4 14be d431 0f3f
00000020: ba94 6b3f 1b22 bb3f 2c94 913e f8d0 2e3f
00000030: 48f8 a03e fdd4 b1be 602f c3be 3e5c 39be
00000040: daed 86bd d805 8a3d 1239 973d 0e0f 563f
00000050: 64b1 583f 3542 b03e e64c 17bf 0f43 a83f
00000060: 7a66 5ebd a72b a3be acfa d83e 8661 b3bd
00000070: 2060 dcbe 5215 2f3e 9e69 1a3f 8f17 993e
00000080: e0d6 093d 025f 49be 095b 443e d638 7cbe
00000090: 999e b63d 4ef5 843e c0d3 c03e 98cc 473e
000000a0: 2c5a 78bd bba3 9ebf 414d 013f 3a54 b9be
000000b0: 7175 10be 7dc3 a4be 7ddb c93d 104a 903c
000000c0: 69c0 94be 4d86 d7bd 6e86 5b3d 4252 a83e
000000d0: 7a43 ff3e e295 813e 9579 c13e cb2a 4dbf
000000e0: c067 013f 42ca cfbe a212 a0be d8e9 a73c
000000f0: 7548 0e3e a683 20be a6fe 483e 0727 4a3f
00000100: 7a21 3a3f 82a2 cd3d d77c dd3f f4f7 8fbd
00000110: 841e 1ebe 92ce 20bc daaa 82be cd85 59be
00000120: d489 c03e e097 053f 8d09 383f d0ae ac3f
00000130: ca11 9a3e 3a54 353e 2a59 b8bd 7652 b6be
00000140: fe66 3bbf 06a0 383e 3a43 aa3e 220c 05bf
00000150: 88d1 a1bd 39ea a7be bc20 52bf 0924 b3be
00000160: b262 0f3d 9864 b4bf 5292 52bf 9297 c23f
00000170: e62c fe3f 2922 3c3e 165b af3d 60ab 10bf
00000180: a907 303f 4d9f 5f3d 1171 e03c eb2a 4ebe
00000190: 4470 1b3f b0d0 0d3e 5ab3 c3be 6603 f5be
000001a0: 462b b73c c060 b2be c4f8 a6be 9d09 55bf
000001b0: 8527 ed3d f9b5 263e 2485 36bf 4eea 203f
000001c0: f01e b33d 0409 75bc 51d2 3e3d 3896 043c
000001d0: 3594 5cbe 49b6 373e 1de4 a73e fe7d c33e
000001e0: 9015 b33e 00e8 10bf deba 30be 5052 1a3e
000001f0: af8d 09bf f4f5 1fbd dbe0 87be 4d04 093e
00000200: 871a c7bd ba58 02bf e6b2 61bf f436 13be
00000210: 1b0e a13f 8c4a 133f cf0e d73d aa27 85bf
00000220: 7732 cb3d bac7 7e3d 5713 2fbe f06b 3b3f
00000230: e667 e83f d63a e73f be66 ab3e f84d 87bf
00000240: 3795 c6bf 1208 263e 5067 4d3f ecda 84bd
00000250: 68e2 593e 2c3c f03d f09e 80bf eb79 343f
00000260: 222d f4bf 8023 bbbe 9e98 c8bf 0844 cdbf
00000270: 1d29 31bd fae4 273f 64d6 203e 0dee 8dbd
00000280: 44b7 1e3e 5c4c 18bf 24dd febe 2b33 15c0
00000290: f326 e8be f3d2 bebf 1402 14c0 5ea0 6bbd
000002a0: bf85 08bf 7ef8 56be 9478 14bd f021 0dbe
000002b0: 1b7f 2f3f a7a6 0e40 842f 5ac0 5dd5 babd
000002c0: d64b ab3f f0e3 91bf e71f 4a3e f0e8 85be
000002d0: 66b2 223d 2abf 97bd 7ee0 a83d cd82 1e3e
000002e0: 27e9 743f 38d8 313f 6749 aabe 911c 08bf
000002f0: b52d 953d e1c2 93be 9956 6e3e 8aa0 5fbd
00000300: cde3 21be 14dd 0b3e 961d 0bbf ddb2 00c0
00000310: b8f6 8abf d155 103e ade6 37bf 293c 29bf
00000320: 2ca9 2bbe 19a9 513e 16bd c3be 749d 47bd
00000330: 1ec8 76bd 81aa 903e dbc2 0b3e 16e9 ad3d
00000340: fe0d d33e b17d 833f 688c 0e40 3eb7 93be
00000350: be69 963d 4134 97bd 2a00 5ebc 60a0 4bbe
00000360: ea22 e2bd 5004 6dc0 6f24 3840 6d22 c23b

bias f4 [20]
0.9420713 1.9017937 0.446163 -0.023623265 -0.049187645 1.6530128 0.22817698 -0.2865706
-1.0586557 -0.30818573 0.36422 1.043508 -0.04351888 0.7815368 0.22817934 -0.53473324
1.5228012 -1.0815723 0.8549683 0.20243436
00000000: 962b 713f fa6d f33f 7a6f e43e 9485 c1bc
00000010: fc78 49bd ec95 d33f 3aa7 693e 62b9 92be
00000020: 0882 87bf 85ca 9dbe 0b7b ba3e ac91 853f
00000030: da40 32bd cc12 483f d8a7 693e 47e4 08bf
00000040: 26eb c23f f670 8abf 34df 5a3f f44a 4f3e

weight f4 [4, 20]
1.5469415 0.9212449 0.77615 -0.4288874 -0.08189503 0.63338083 1.9521291 -0.62121046
-0.7851431 -0.5039177 0.74057627 -1.0888095 2.7632642 -2.690411 -1.0332832 -3.0051527
0.093797736 -0.22921652 -0.93860006 -3.988417 0.4764791 1.2850387 0.5954962 -0.5890787
0.4981923 0.77460027 -0.14589846 -0.6477988 -0.23314992 0.21377262 -0.108904645 0.09759566
-1.225925 0.78510964 -2.2396932 -1.539964 1.5602939 -1.42649 -0.12893888 -0.81721854
-1.3563455 -0.35644394 -0.2966282 0.23677355 0.17172645 0.23136003 -1.195264 0.5254249
-1.5121256 -0.6242444 -0.6060549 1.1263862 -0.62573135 1.1257061 0.9359845 0.6573311
0.3908605 -0.6261418 0.9104048 1.8281558 -0.8217058 -1.6637158 -1.3252923 1.1831592
-0.31126893 -1.9107568 -0.54884475 0.78616863 2.7550168 0.8993598 -0.56846243 -0.16958839
-0.78881097 0.6769409 2.1176229 3.61721 -2.0326824 2.074417 0.20838805 2.8357246
00000000: 2e02 c63f b5d6 6b3f c4b1 463f 2197 dbbe
00000010: 95b8 a7bd 3f25 223f 5edf f93f a607 1fbf
00000020: 23ff 48bf c000 01bf 6896 3d3f 1c5e 8bbf
00000030: 52d9 3040 b22f 2cc0 a042 84bf 6c54 40c0
00000040: 0719 c03d bcb7 6abe 1848 70bf 3942 7fc0
00000050: 12f5 f33e 267c a43f 7072 183f ddcd 16bf
00000060: 1013 ff3e 344c 463f 6866 15be 24d6 25bf
00000070: dabe 6ebe 36e7 5a3e 6609 dfbd 3ce0 c73d
00000080: 1ceb 9cbf f2fc 483f 2257 0fc0 8a1d c5bf
00000090: b6b7 c73f 3997 b6bf 8e08 04be 3c35 51bf
000000a0: bb9c adbf d27f b6be a7df 97be c474 723e
000000b0: 0fd9 2f3e a5e9 6c3e 69fe 98bf 3f82 063f
000000c0: 558d c1bf 7bce 1fbf 6a26 1bbf 6c2d 903f
000000d0: ee2f 20bf 2317 903f ae9c 6f3f da46 283f
000000e0: de1e c83e d44a 20bf 4a10 693f 0201 ea3f
000000f0: 505b 52bf a4f4 d4bf 2ea3 a9bf c371 973f
00000100: a45e 9fbe ae93 f4bf 1781 0cbf 5942 493f
00000110: 3252 3040 723c 663f c186 11bf 94a8 2dbe
00000120: 84ef 49bf 004c 2d3f 2287 0740 5e80 6740
00000130: 7817 02c0 40c3 0440 ad63 553e 837c 3540

bias f4 [4]
-0.31746495 1.1323014 0.32798213 -1.2545786
00000000: c48a a2be 41ef 903f 46ed a73e 0896 a0bf
