system/models/body_iid_and_unbalanced/FedAvg_server.pt (torch, 4675 bytes, 4 tensors)

weight f4 [20, 11]
00000000: 6a43 3a3e 4a7d e53e 6604 a0be 5bfe bdbe
00000010: f93d b4be bb9d 133c e2f6 53bc 527f d63e
00000020: 0859 e73e 84cb f13e 7f14 173e 11fd 0f3e
00000030: 9bdb 93be 4a52 8fbe 1aad 49be acab 9fbd
00000040: 1dec 3e3e 49ed 823e ba75 c4bd ab02 c43d
00000050: 66da 803e c154 a13e 4f03 223c faa7 ea3e
00000060: 378a 3abe 60b6 bebd 2e8d d63e e521 a2be
00000070: 9911 1bbe 2b21 84be ae73 473d a4d1 173e
00000080: 8ffb b2be 3a97 0c3e 4c89 7ebe 3c9c 8ebe
00000090: 640d 97bd 895a b83e 1257 963e 15c4 863e
000000a0: 243f 313d f0a9 27be fefa 1fbe c1fa cfbe
000000b0: 75c8 21be 2404 79be 6c73 623e 64a2 473e
000000c0: 54a9 81be 5393 473b 5857 503e 8d9b d83e
000000d0: 8cdc 4c3e 3ae0 2f3e 5cff a13e a4ec 15be
000000e0: 9304 aa3d 07df 8abe 1b94 72be 3696 00be
000000f0: 2e89 283e 4791 033e 7538 4abe 84a8 b63d
00000100: 74f2 0f3e dcba aebd 984b 873e 0e5f 883e
00000110: 1078 b43d 8cc6 4b3e dbc4 d3be db96 41be
00000120: 0cea 2a3e 4f69 973e 52f5 143f b548 d53e
00000130: 77ae 383e 125d 42be 1a0b 233c 4600 34be
00000140: f857 6dbe 2a12 b33e e26e 7a3e 1409 67be
00000150: 1793 0d3c 22d8 f5bd 9090 39be 3593 56be
00000160: ae98 a83e c75f 15be cf04 533c 88fa 143e
00000170: 2eba ad3e 9eb2 c13d a0e8 59be 44d8 afbe
00000180: ae08 483e d1f8 25be 2876 c7be 7aca 3dbe
00000190: 4138 9a3e dac3 5b3e 6441 22be 10fa c4bd
000001a0: cda5 a5be 571a afbc 3927 8abe 12ef 63be
000001b0: fed9 e6bc 4e27 ae3c 7d5a f7bd 642e 943e
000001c0: 6e45 7fbe 9c02 3f3e 1106 483e b199 92be
000001d0: 0199 0abe e836 043c 788c 263e d326 083e
000001e0: b4b9 013e 831e 26bd 360f 15be 771f 173e
000001f0: 80e1 a3be 52a7 64be eac1 acbd 6fd9 30be
00000200: 764f debd e9af 67be 3024 bfbc a84d b33d
00000210: 92bc e93e b238 133f d7c5 3cbe c4ae d3be
00000220: ae87 bbbe f851 4dbd 69db b53c 5306 f23e
00000230: d1b2 883f 7843 523f 6f03 063f b6e5 47be
00000240: 2c20 debe 18b3 c1bd fb7a 853e 96c0 ab3d
00000250: 685c 03be 4f90 85be cc8c 94be fe88 a7be
00000260: d66d 06be 5a25 1f3e 7ae3 fcbc 92d7 bcbe
00000270: 28c0 4c3e 1a27 8cbe 5daa a2bd c5ad 093d
00000280: f40f 96bd cfb6 d7bd 91e8 d7be fa6f 90be
00000290: ed78 8ebd f3c2 8abc f688 c5bd 472d c53d
000002a0: 9b56 93be 8826 abbc 4af2 553e 2cd0 1bbe
000002b0: 2a06 683e cfe1 dc3d 8f24 92be b632 253e
000002c0: 000a da3c 6e5d b7be 2319 953e 837b 84bd
000002d0: 3eb4 403e 4ac2 c6bc 7a1c 9e3e 1b79 083e
000002e0: 36f0 983d 7317 14be e6c5 74be 3699 4ebd
000002f0: 42a5 79be 2835 123e c613 5d3e d73a 613e
00000300: 37f8 34be dded 293d 5ab3 7ebe 24fd 3fbe
00000310: 2405 3ebe 1805 c73d b9f5 6ebe 80b1 bdbc
00000320: b23e 333c be1f 3e3e 406e 57be 6cc9 4dbe
00000330: 65ba 4fbe 4844 4f3e d343 0bbe 9ace 843e
00000340: 4a50 d43d 442b 873e 8159 99bd 72b8 01bd
00000350: 184b 093e 8e4e b73c cad2 72bd 0649 153e
00000360: b756 6ebe 8a7f 63be 15d3 c63d 257b d4be
0.18189779 0.4482215 -0.31253356 -0.3710812 -0.3520353 0.009009774 -0.012937279 0.41894013
0.45185113 0.47225583 0.14753912 0.14061381 -0.28878483 -0.2799247 -0.1969494 -0.07796416
0.18644758 0.2557166 -0.09592767 0.095708214 0.25166625 0.31509975 0.009888484 0.4583128
-0.18216787 -0.09312129 0.41904587 -0.31666484 -0.15143432 -0.25806555 0.048694305 0.14826065
-0.3495755 0.13729563 -0.24857062 -0.27853572 -0.07375601 0.36006573 0.29363304 0.26321474
0.043273106 -0.1637342 -0.1562309 -0.40620998 -0.15799125 -0.24317986 0.22114342 0.19495541
-0.253245 0.0030452802 0.20345819 0.42306176 0.20006007 0.1717538 0.31640136 -0.14641052
0.08301654 -0.2712328 -0.2368931 -0.12557301 0.1645858 0.12848388 -0.19748099 0.089188606
0.14057332 -0.08531734 0.2642486 0.2663502 0.088119626 0.19899958 -0.41361126 -0.18905203
0.16690844 0.29572532 0.5818683 0.41657034 0.18035303 -0.18980816 0.009951377 -0.1757823
-0.23178089 0.34974796 0.24456361 -0.22562057 0.008641026 -0.12004115 -0.18121552 -0.20954593
0.32928985 -0.14587317 0.012879564 0.14548695 0.33931106 0.09457897 -0.21280146 -0.34344685
0.19534561 -0.16208197 -0.38957334 -0.1853427 0.30121043 0.2146143 -0.15845257 -0.09618008
-0.32353058 -0.021374865 -0.2698305 -0.22259167 -0.028180119 0.021258976 -0.12077806 0.28941643
-0.24928829 0.18653339 0.19533564 -0.28632882 -0.13534929 0.008069731 0.16264522 0.1329606
0.12668496 -0.040556442 -0.14556584 0.14758097 -0.3200798 -0.22329453 -0.08435424 -0.17270444
-0.10855 -0.22625698 -0.023332685 0.08755046 0.4565168 0.57508385 -0.18434845 -0.41344273
-0.36626953 -0.050127 0.02219935 0.4727045 1.067957 0.821342 0.5234899 -0.19521222
-0.4338392 -0.094579875 0.2607039 0.08386342 -0.12828219 -0.2608666 -0.2901367 -0.32721704
-0.13127837 0.15541592 -0.030870188 -0.36883217 0.19995177 -0.27373582 -0.079426505 0.033612985
-0.073272616 -0.10532915 -0.42169622 -0.2821043 -0.069566585 -0.016938662 -0.09645264 0.096277766
-0.28777012 -0.020892397 0.20893207 -0.1521613 0.22658601 0.10785257 -0.28543517 0.16132626
0.026616096 -0.3581347 0.2912074 -0.064688705 0.18818757 -0.024262566 0.308811 0.13327448
0.074676916 -0.1446207 -0.23903617 -0.050439082 -0.24379447 0.1427809 0.21589574 0.21995102
-0.17672811 0.04148661 -0.24873105 -0.18748909 -0.18556648 0.097177684 -0.23335923 -0.023155928
0.010940241 0.18566796 -0.21038151 -0.20096368 -0.20285948 0.20240891 -0.13600092 0.25938874
0.103668764 0.26400197 -0.07487775 -0.03167004 0.13407552 0.022376325 -0.059283055 0.14578637
-0.23275267 -0.22216621 0.097082295 -0.41500202

bias f4 [20]
00000000: 5656 4e3d d65f 283f 5a3e 873e b9f3 543e
00000010: f0c4 15be 745d 2f3e e4eb 4bbe a9e9 8fbd
00000020: 2f67 a13d 6415 573b 66d5 c63d cea5 933e
00000030: c2df 49bc 8a26 343f e800 003f ea01 7dbe
00000040: 8c95 3f3f 3038 82be 30ad dcbd 621b c23e
0.050375305 0.65771234 0.26414758 0.20796098 -0.14625907 0.17125493 -0.19914204 -0.07026989
0.07881009 0.0032819146 0.09708671 0.28837436 -0.012321414 0.70371306 0.5000138 -0.24707761
0.74837565 -0.25433493 -0.107752204 0.37911516

weight f4 [4, 20]
00000000: e06d 4e3f f5e9 ba3e 2658 e63d aad2 42be
00000010: 26f8 6b3e 4ca7 aa3d 2cd3 373f 9d69 1ebe
00000020: 9e03 3ebe 9f8d 80bd 46b0 d83d 42ca a5bd
00000030: 2aff bb3f b7df 08bf d1ee 09bf 06de e9bd
00000040: 5509 c8be 79e3 853d 958d 9dbd 7c0c babe
00000050: e83d 04bf ad93 f83e 3be7 dc3e edf7 143f
00000060: 4086 c13e f4ef 663b fe8f edbd d3f3 563e
00000070: 4cc0 0a3f e602 693e a14a 69bd 6cea 593e
00000080: 4eb7 4dbf 09b5 1b3f b0df b63e 9222 07be
00000090: 641d 473f 64dd 5dbe 5c03 483e 2094 e43e
000000a0: dad5 26be de6d c9be 72ef d2be 52e1 a83d
000000b0: e0f9 c6bd 705f be3c ec6e 90be 4461 013c
000000c0: 72e4 05be 4521 8cbd 85d9 8bbe d8be 8139
000000d0: 1554 7fbe 3472 43bd ebb1 a3bd db20 11be
000000e0: b941 a3bc 58fd 0ebe e824 a33a 6c00 1ebe
000000f0: 05b3 90be e2d0 8abe 3eca c3be 5c3a 94bd
00000100: fc57 70be 1a58 c3be 705e 84be 52d2 aabc
00000110: 7c02 b9ba 4eb3 e4bd 6935 a3be 0c81 2abe
00000120: f37f 96be a334 04be 343c 1b3d f86a ef3d
00000130: 27ae b5be f2bd a83d fb16 8cbd c49d 92bd
0.80636406 0.3650662 0.11247282 -0.19025674 0.2304388 0.083326906 0.718066 -0.15469976
-0.18556067 -0.06277012 0.105804965 -0.08095218 1.4687245 -0.5346636 -0.5388003 -0.11419301
-0.3906962 0.065375276 -0.0769302 -0.3633765 -0.5165696 0.48550168 0.43145165 0.58190805
0.37797737 0.0035238238 -0.1159973 0.20991449 0.5419967 0.22755012 -0.056955937 0.21280831
-0.80357826 0.6082311 0.35717535 -0.13196781 0.7777922 -0.21666485 0.19532531 0.4464426
-0.16292515 -0.39341635 -0.41198307 0.082461014 -0.097156286 0.023238868 -0.28209627 0.007896725
-0.13075426 -0.06842283 -0.27314392 0.00024746987 -0.24934418 -0.047716334 -0.079929195 -0.1417269
-0.0199288 -0.1396383 0.0012446912 -0.15429848 -0.2826158 -0.2711249 -0.38240236 -0.07237694
-0.23471063 -0.38153154 -0.258533 -0.020852242 -0.001411512 -0.11167012 -0.31876686 -0.1665079
-0.29394493 -0.12910704 0.03789921 0.116903245 -0.3548443 0.08239354 -0.06840321 -0.07158998

bias f4 [4]
00000000: b316 49bd 11db 863f 7c8c 10bf dc2b 0dbf
-0.049093913 1.0535604 -0.5646436 -0.5514505
